…
er_1.1mm_300W', 'outer_1.3mm_100W', 'outer_1.3mm_200W', 'outer_1.3mm_300W', 'outer_1.5mm_100W', 'outer_1.5mm_200W', 'outer_1.5mm_300W', 'outer_1.7mm_100W', 'outer_1.7mm_200W', 'outer_1.7mm_300W']
可视化结束
进入split_data函数，X形状: (10012, 1000, 3), y形状: (10012,)
标签分布: [236 232 285 249 226 303 273 263 271 273 293 285 265 254 261 290 266 275
 274 256 259 259 131 280 280 244 270 302 277 264 277 254 262 250 269 271
 260 273]
分割后 - X_train: (6006, 1000, 3), X_val: (2003, 1000, 3), X_test: (2003, 1000, 3)
训练集大小: (6006, 1000, 3)
验证集大小: (2003, 1000, 3)
测试集大小: (2003, 1000, 3)
CNNLSTM_EnhancedAttention(
  (conv1): Conv1d(3, 64, kernel_size=(3,), stride=(1,), padding=(1,))
  (bn1): BatchNorm1d(64, eps=1e-05, momentum=0.1, affine=True, track_running_stats=True)
  (pool1): MaxPool1d(kernel_size=2, stride=2, padding=0, dilation=1, ceil_mode=False)
  (conv2): Conv1d(64, 128, kernel_size=(3,), stride=(1,), padding=(1,))
  (bn2): BatchNorm1d(128, eps=1e-05, momentum=0.1, affine=True, track_running_stats=True)
  (pool2): MaxPool1d(kernel_size=2, stride=2, padding=0, dilation=1, ceil_mode=False)
  (conv3): Conv1d(128, 256, kernel_size=(3,), stride=(1,), padding=(1,))
  (bn3): BatchNorm1d(256, eps=1e-05, momentum=0.1, affine=True, track_running_stats=True)
  (lstm): LSTM(256, 100, batch_first=True, bidirectional=True)
  (dropout1): Dropout(p=0.3, inplace=False)
  (attention): MultiHeadSelfAttention(
    (input_projection): Linear(in_features=200, out_features=400, bias=True)
    (q_linear): Linear(in_features=400, out_features=400, bias=True)
    (k_linear): Linear(in_features=400, out_features=400, bias=True)
    (v_linear): Linear(in_features=400, out_features=400, bias=True)
    (output_projection): Linear(in_features=400, out_features=200, bias=True)
    (layernorm1): LayerNorm((200,), eps=1e-05, elementwise_affine=True)
    (layernorm2): LayerNorm((200,), eps=1e-05, elementwise_affine=True)
    (dropout): Dropout(p=0.3, inplace=False)
  )
  (fc1): Linear(in_features=200, out_features=128, bias=True)
  (dropout2): Dropout(p=0.3, inplace=False)
  (fc2): Linear(in_features=128, out_features=64, bias=True)
  (fc3): Linear(in_features=64, out_features=38, bias=True)
)

Epoch 1/50 开始...
                                                                                                                                                                                                                           
开始验证...
                                                                                                                                                                                                                           
…
